JEM.pt (torch, 257810 bytes, 11 tensors)

cnn_layers.0.weight f4 [16, 1, 5, 5]
-0.16101234 -0.20387246 -0.15707354 -0.11735064 0.019712184 -0.18349169 -0.26041895 -0.06097393
0.021939265 0.20640701 -0.016771534 -0.0738741 0.20475408 0.39660093 0.29266644 -0.13138483
0.070056215 0.33964157 0.3257192 0.16958705 0.0143554015 0.09580991 0.32094392 0.18849102
0.049300596 0.03851303 -0.093612984 -0.13467811 -0.14847264 -0.18945345 -0.20622414 -0.23466717
-0.31585404 -0.19467093 -0.18828923 -0.1674887 -0.12754714 -0.036206122 -0.26424298 -0.023413291
-0.04815859 -0.019466782 -0.016637804 -0.0058881333 -0.016847424 0.09960721 0.14459722 -0.053287756
0.008608032 0.15500572 -0.1497968 0.024333347 -0.11095542 0.0851588 -0.08731904 -0.14895499
-0.19711089 -0.049202856 0.05946739 0.07834033 -0.15249075 -0.2845577 -0.16930582 -0.14558625
0.111556485 -0.09126188 -0.10912708 0.075124554 -0.1648864 0.016201403 -0.26056767 -0.27988148
-0.21412641 0.13967672 0.16920938 0.044524286 0.050827384 0.058081836 -0.068064354 -0.059907936
0.04593376 -0.19075273 -0.051203296 -0.28256762 -0.044984948 0.045281418 -0.15553883 -0.043364998
-0.18949959 -0.23619162 0.033860285 -0.21302754 -0.2832107 -0.11721002 -0.08279975 0.12937307
-0.20386797 0.026359968 -0.1058437 0.017373193 0.08308967 0.017147288 -0.19909744 -0.047543008
0.13817582 0.17621833 -0.12903836 -0.24267884 -0.07678891 0.1932585 0.008103802 0.1057599
-0.10963866 -0.065716125 0.11315596 0.16238096 -0.039051015 -0.13254626 -0.1588681 0.14047356
0.080759734 -0.05344585 0.023057036 -0.18750665 -0.0028531365 0.018223373 -0.18975507 -0.20797507
0.027165662 0.057701197 -0.015985662 -0.16700855 -0.2050853 -0.021484602 0.10751655 -0.13116756
-0.019984866 -0.25676364 0.045927573 0.061340556 0.029881079 -0.15647592 -0.21087971 -0.23246318
-0.048214577 -0.012053685 -0.08150866 -0.14402087 -0.21868825 -0.10149842 0.02164974 -0.18862447
0.0555714 0.087927386 0.15281153 -0.18719506 -0.08507587 0.09036524 -0.10730959 0.15548472
-0.08357066 -0.041676566 0.18733983 -0.11071787 0.16932754 -0.031152964 0.053423252 -0.13780595
0.07997862 0.19218367 0.027175304 0.12428104 -0.12734458 0.084546745 -0.037151355 0.104505606
-0.26051885 -0.07840489 0.21093142 0.1394735 -0.2821979 -0.08334758 0.18704885 0.3188304
-0.14035986 -0.15748203 0.034655146 0.1768519 0.20823386 -0.15668425 -0.14176372 -0.10548344
-0.09576879 0.0334288 -0.13664553 -0.12672026 -0.034990843 0.1428085 0.091414705 0.07793513
-0.13093263 -0.08342158 0.07747767 -0.04766364 0.020699488 -0.07796043 -0.26018453 -0.1714395
0.030198935 0.0003761771 -0.2782316 -0.22552302 0.015703186 -0.10627506 -0.03900364 -0.10451124
0.017061876 -0.16421247 0.032226264 -0.059756067 -0.07659248 -0.12036454 -0.18972354 -0.080792196
0.09748136 -0.15381065 -0.0048009283 -0.0208045 0.04179037 0.03298212 -0.1814181 -0.11652769
-0.00964949 0.07065062 -0.1996797 0.0202102 -0.05299443 -0.11153999 -0.085404895 -0.24180426
0.09582022 0.091024436 -0.13975988 -0.26972425 -0.2114074 0.08891984 0.0133505715 0.021963542
-0.1734391 -0.24406591 0.0035557747 0.18720269 0.12851472 0.1421862 -0.028620958 0.13487035
00000000: 6be0 24be f1c3 50be e3d7 20be 8855 f0bd
00000010: 727b a13c 3fe5 3bbe a255 85be cdbf 79bd
00000020: f9b9 b33c 5c5c 533e 7564 89bc 4e4b 97bd
00000030: 0eab 513e 470f cb3e 60d8 953e bf89 06be
00000040: a279 8f3d 80e5 ad3e abc4 a63e 3aa8 2d3e
00000050: eb32 6b3c fc37 c43d c352 a43e ca03 413e
00000060: 6cef 493d d7bf 1d3d 2ab8 bfbd 0fe9 09be
00000070: 3609 18be 1600 42be 6c2c 53be 974c 70be
00000080: 9fb7 a1be d157 47be e4ce 40be 2882 2bbe
00000090: b89b 02be df4c 14bd db4a 87be 3bcd bfbc
000000a0: f141 45bd cd78 9fbc 014c 88bc 3ef1 c0bb
000000b0: 9c03 8abc ddfe cb3d 4b11 143e 4344 5abd
000000c0: b408 0d3c d2b9 1e3e 5564 19be ba56 c73c
000000d0: 983c e3bd bd67 ae3d 53d4 b2bd a887 18be
000000e0: 70d7 49be ef88 49bd 1494 733d e570 a03d
000000f0: 8926 1cbe 8cb1 91be 815e 2dbe 9014 15be
00000100: ba77 e43d 82e7 babd 057e dfbd e7da 993d
00000110: fbd7 28be ceb8 843c 2069 85be a04c 8fbe
00000120: f443 5bbe 6a07 0f3e 3945 2d3e 195f 363d
00000130: 6030 503d 38e7 6d3d 5365 8bbd 0662 75bd
00000140: 0a25 3c3d af54 43be 8cba 51bd b4ac 90be
00000150: 2342 38bd 0279 393d 9245 1fbe 7f9f 31bd
00000160: 2e0c 42be 37dc 71be 15b1 0a3d e423 5abe
00000170: fe00 91be cf0b f0bd ea92 a9bd 607a 043e
00000180: c4c2 50be dcf0 d73c 95c4 d8bd 3a52 8e3c
00000190: eb2a aa3d 7878 8c3c 33e0 4bbe 75bc 42bd
000001a0: f67d 0d3e 9472 343e a222 04be cd80 78be
000001b0: 8143 9dbd 8ee5 453e cfc5 043c a598 d83d
000001c0: 3c8a e0bd 2d96 86bd 50be e73d 3247 263e
000001d0: f5f3 1fbd 35ba 07be 52ae 22be 4dd8 0f3e
000001e0: 5c65 a53d 09ea 5abd 1ce2 bc3c be01 40be
000001f0: b0fb 3abb 2f49 953c 274f 42be 6bf7 54be
00000200: 868a de3c 1758 6c3d 5df4 82bc 4a04 2bbe
00000210: e201 52be 7a00 b0bc a331 dc3d ca50 06be
00000220: 4db7 a3bc 8676 83be 8d1e 3c3d 3c40 7b3d
00000230: 2ac9 f43c 393b 20be daf0 57be d40a 6ebe
00000240: a67c 45bd d27c 45bc 03ee a6bd 357a 13be
00000250: d0ef 5fbe 67de cfbd cc5a b13c c626 41be
00000260: d69e 633d 4613 b43d a07a 1c3e 10b0 3fbe
00000270: 423c aebd 6911 b93d 21c5 dbbd 6337 1f3e
00000280: 1827 abbd 0cb5 2abd 03d6 3f3e 0dc0 e2bd
00000290: 3364 2d3e 8034 ffbc 57d2 5a3d 011d 0dbe
000002a0: d5cb a33d cccb 443e be9e de3c 0f87 fe3d
000002b0: 9e66 02be d826 ad3d 052c 18bd 0907 d63d
000002c0: ba62 85be be92 a0bd 68fe 573e 24d2 0e3e
000002d0: 3e7c 90be 23b2 aabd bc89 3f3e bd3d a33e
000002e0: 7fba 0fbe f842 21be 8ef2 0d3d aa18 353e
000002f0: 423b 553e d671 20be 822a 11be b407 d8bd
00000300: 6d22 c4bd a3ec 083d ceec 0bbe f5c2 01be
00000310: 8f52 0fbd 643c 123e a237 bb3d 749c 9f3d
00000320: 3413 06be efd8 aabd 9dac 9e3d f33a 43bd
00000330: f991 a93c b8a9 9fbd e836 85be d68d 2fbe
00000340: c263 f73c a339 c539 5f74 8ebe 82ef 66be
00000350: f8a3 803c bda6 d9bd 48c2 1fbd fd09 d6bd
00000360: 59c5 8b3c 5027 28be b0ff 033d c7c2 74bd
00000370: 85dc 9cbd af81 f6bd e346 42be 6176 a5bd
00000380: 4fa4 c73d 8a80 1dbe 1b51 9dbb 336e aabc
00000390: 612c 2b3d 4218 073d abc5 39be 12a6 eebd
000003a0: e518 1ebc 46b1 903d d678 4cbe dd8f a53c
000003b0: b010 59bd 146f e4bd c3e8 aebd 899b 77be
000003c0: 643d c43d 056b ba3d 371d 0fbe 4c19 8abe
000003d0: 2e7b 58be 9b1b b63d 5bbc 5a3c e3ec b33c
000003e0: 059a 31be 6aec 79be 0008 693b 10b2 3f3e
000003f0: 5d99 033e 4299 113e 8076 eabc 741b 0a3e

cnn_layers.0.bias f4 [16]
-0.19225506 -0.22843191 0.1617617 -0.2075316 0.28556815 -0.18539903 0.3417208 0.18751392
-0.24167764 0.028378278 0.44369477 -0.048059274 0.009890515 0.2910046 0.09904601 -0.083763584
00000000: 83de 44be 0eea 69be dca4 253e 2a83 54be
00000010: fd35 923e 3ed9 3dbe 07f6 ae3e a603 403e
00000020: 587a 77be 9079 e83c f62b e33e cdd9 44bd
00000030: d40b 223c 8efe 943e a2d8 ca3d 3e8c abbd

cnn_layers.2.weight f4 [32, 16, 3, 3]
-0.10588227 -0.20470172 -0.1487731 -0.004315217 -0.047616716 -0.012532013 0.121066205 0.025950935
-0.07610165 -0.10311961 -0.032023456 0.0638837 -0.057286307 -0.0941134 -0.0049824426 -0.051084418
-0.07311584 -0.13571589 0.06775701 -0.004094569 -0.017267797 0.038886856 -0.011815797 -0.08588076
0.10970705 0.08409324 0.008470298 -0.14813177 -0.08481564 0.11512421 -0.12716025 -0.19288403
-0.15841745 -0.058653466 -0.09466042 -0.08974368 0.049968608 0.1771129 0.12721781 0.016535526
0.13744782 0.11517441 0.072657764 0.14618452 0.12963219 0.07603457 -0.09439326 -0.04322009
0.07920715 0.022417374 -0.04098105 -0.06896768 0.002823461 0.009564194 0.12067308 0.12250469
0.056092497 0.18378997 0.14582093 0.029956853 0.06173403 0.1883891 0.035483662 0.1267313
0.09240418 0.08930534 0.19097936 0.033683766 0.042016737 0.09649703 0.0014069317 0.10658893
0.05649589 -0.12028251 -0.0788799 0.07311186 -0.034663353 -0.1423887 0.027937077 0.0037280284
-0.05842601 0.003706254 0.10617142 0.065198466 0.011353593 -0.12929595 -0.10249025 -0.05124522
0.0788625 0.07722188 0.049814966 0.007677227 -0.040796205 0.11403607 0.09780061 0.016829707
0.051449455 0.14480007 0.16961715 0.008315473 -0.010894488 -0.11034707 -0.010431536 -0.0673311
-0.043300096 -0.074306495 -0.0132617485 -0.050395384 0.1106269 0.15622053 0.019443871 0.11711901
0.18834572 0.042783104 0.033990614 -0.03973763 0.06889817 0.047282618 0.17751376 0.017216051
0.101932764 0.13244139 0.119031206 0.10055817 0.1920007 0.14435107 0.08204172 -0.029029302
0.032415807 -0.08935111 -0.043399367 -0.006788721 0.0050161923 -0.058073748 0.053166192 -0.04289817
0.04757966 -0.021567808 0.0034100274 -0.022279631 -0.12577398 0.04002432 -0.0497618 -0.08900869
-0.06616561 0.006216625 -0.070596084 0.031226916 -0.07804491 -0.17786992 0.14265876 0.08719493
-0.12741953 -0.07011392 0.01298216 -0.079783134 -0.061846495 -0.014754541 0.062682584 0.047168735
-0.030888498 -0.052375387 0.14187032 0.07428029 0.024505725 0.043022834 0.026743375 0.073487334
-0.025749885 0.079255834 -0.069167346 -0.06516163 0.011442683 0.0043945564 0.0064069275 0.027273463
-0.0042982986 -0.032627087 -0.10301059 -0.09373728 0.12290654 0.11803787 0.059454728 0.022430118
0.12387467 0.058262054 -0.0033026247 0.15599987 0.13641071 -0.003713289 0.033864226 0.08346069
-0.005883719 -0.104260325 -0.10208241 -0.10070538 -0.038168263 0.036060262 0.09933255 0.14291307
0.026270006 0.11371861 0.13391367 0.077077985 0.06311621 0.14319953 -0.025418578 0.15125337
0.16104493 0.032449782 0.09734759 0.077557765 -0.014833449 0.027640728 0.06901882 0.019730613
0.07090058 0.061547913 -0.09075139 0.044841845 -0.02163174 -0.0007912916 -0.09358038 -0.08069528
-0.0016703322 0.031341776 -0.014885681 0.045028895 0.050512012 -0.031053737 0.05576887 -0.0054198164
-0.06994979 0.08068963 0.026890242 0.04279539 0.06011597 -0.10591014 -0.07340039 0.032121245
-0.07819666 0.035229 0.06432538 0.059701964 0.040778175 0.058607426 -0.014662964 0.0041814856
0.004345907 -0.008121748 -0.07749182 0.05276031 0.016935594 -0.06944243 -0.10979866 -0.07450072
00000000: ced8 d8bd 549d 51be fa57 18be aa66 8dbb
00000010: bf09 43bd 1253 4dbc 8ff1 f73d 0e97 d43c
00000020: 2fdb 9bbd 6030 d3bd 072b 03bd 75d5 823d
00000030: 0ca5 6abd 87be c0bd c243 a3bb e53d 51bd
00000040: c2bd 95bd 1bf9 0abe 30c4 8a3d bc2b 86bb
00000050: 3275 8dbc d347 1f3d 0b97 41bc 40e2 afbd
00000060: 17ae e03d 1439 ac3d 01c7 0a3c dbaf 17be
00000070: d2b3 adbd 3ec6 eb3d 4c36 02be 6483 45be
00000080: 2f38 22be 9e3e 70bd 53dd c1bd 89cb b7bd
00000090: e2ab 4c3d 165d 353e 6345 023e 8375 873c
000000a0: 1fbf 0c3e 90e0 eb3d 98cd 943d 65b1 153e
000000b0: 4dbe 043e 03b8 9b3d 4151 c1bd 8d07 31bd
000000c0: 5c37 a23d a4a4 b73c bfdb 27bd ed3e 8dbd
000000d0: d109 393b 23b3 1c3c 7323 f73d bde3 fa3d
000000e0: 3fc1 653d 7033 3c3e 1552 153e 1368 f53c
000000f0: d2dc 7c3d 12e9 403e 5157 113d dac5 013e
00000100: 673e bd3d b8e5 b63d 1890 433e fdf7 093d
00000110: be19 2c3d 3ca0 c53d cb68 b83a 4c4b da3d
00000120: 3c68 673d ad56 f6bd c98b a1bd acbb 953d
00000130: 29fb 0dbd 58ce 11be 4cdc e43c f051 743b
00000140: 1d50 6fbd a0e4 723b 6770 d93d c686 853d
00000150: 6c04 3a3c 2866 04be 68e6 d1bd 82e6 51bd
00000160: aa82 a13d 8126 9e3d c70a 4c3d 3f91 fb3b
00000170: ec19 27bd be8b e93d b04b c83d 74de 893c
00000180: aabc 523d 7846 143e 1eb0 2d3e 9f3d 083c
00000190: cb7e 32bc a5fd e1bd 08e9 2abc e3e4 89bd
000001a0: 715b 31bd 012e 98bd ce47 59bc 646b 4ebd
000001b0: 5b90 e23d 46f8 1f3e c148 9f3c 17dc ef3d
000001c0: b3dd 403e 563d 2f3d be39 0b3d edc3 22bd
000001d0: 7c1a 8d3d 6bab 413d 2bc6 353e ad08 8d3c
000001e0: 20c2 d03d b79e 073e a2c6 f33d 71f1 cd3d
000001f0: d59b 443e c4d0 133e 7d05 a83d dcce edbc
00000200: 70c6 043d b7fd b6bd 89c3 31bd eb73 debb
00000210: df5e a43b bdde 6dbd cbc4 593d feb5 2fbd
00000220: e4e2 423d f9ae b0bc c47a 5f3b c683 b6bc
00000230: e5ca 00be 8bf0 233d 07d3 4bbd 304a b6bd
00000240: d681 87bd d5b4 cb3b ae94 90bd 97cf ff3c
00000250: 03d6 9fbd 8823 36be 2315 123e 4193 b23d
00000260: 447a 02be e397 8fbd 20b3 543c 5765 a3bd
00000270: c052 7dbd 08bd 71bc ba5f 803d 0134 413d
00000280: e009 fdbc 9387 56bd 7446 113e 4420 983d
00000290: 3bc0 c83c b638 303d ec14 db3c 8780 963d
000002a0: 6cf1 d2bc e250 a23d 9ca7 8dbd 7673 85bd
000002b0: 177a 3b3c 3600 903b 34f1 d13b 996c df3c
000002c0: bed8 8cbb fba3 05bd 37f7 d2bd 55f9 bfbd
000002d0: 6db6 fb3d d7bd f13d cd86 733d 5ebf b73c
000002e0: 01b2 fd3d 31a4 6e3d d970 58bb 6ebe 1f3e
000002f0: 40af 0b3e a75a 73bb 37b5 0a3d 70ed aa3d
00000300: 36cc c0bb 7086 d5bd 9510 d1bd 9f3e cebd
00000310: 5356 1cbd edb3 133d dd6e cb3d ce57 123e
00000320: 3234 d73c 4de5 e83d aa20 093e 10db 9d3d
00000330: 1243 813d e6a2 123e 9f3a d0bc 2ae2 1a3e
00000340: f6e8 243e 10ea 043d 2c5e c73d 9bd6 9e3d
00000350: ff07 73bc cf6e e23c bd59 8d3d 18a2 a13c
00000360: 5334 913d aa19 7c3d dddb b9bd 15ac 373d
00000370: 0c35 b1bc ae6e 4fba 12a7 bfbd 9143 a5bd
00000380: 0cef daba 3c60 003d 12e3 73bc 3870 383d
00000390: afe5 4e3d 6864 febc e66d 643d b798 b1bb
000003a0: d641 8fbd 9b40 a53d ed48 dc3c 384a 2f3d
000003b0: 2a3c 763d 6ae7 d8bd f252 96bd 9191 033d
000003c0: 9225 a0bd 494c 103d 06bd 833d 0c8a 743d
000003d0: 0407 273d 570e 703d ee3c 70bc d804 893b
000003e0: 1c68 8e3b 1511 05bc 08b4 9ebd 321b 583d
000003f0: 84bc 8a3c d537 8ebd 1fde e0bd d593 98bd

cnn_layers.2.bias f4 [32]
0.20975445 0.19312221 0.14236006 -0.17367 -0.11359914 -0.043062966 0.24496004 0.07441633
0.05833698 -0.17219734 -0.065417044 -0.058184076 0.19957183 0.17262167 -0.09892416 0.21203952
-0.03468421 -0.107490286 -0.16924782 -0.16591124 -0.08257943 0.063806266 0.043130714 0.06592135
-0.03738321 -0.120736636 -0.07734223 0.091558754 -0.0033033043 0.13019928 -0.21621633 0.04333019
00000000: dfc9 563e d4c1 453e d6c6 113e 8cd6 31be
00000010: aaa6 e8bd cb62 30bd ced6 7a3e 9767 983d
00000020: c2f2 6e3d 8054 30be 5ff9 85bd 6d52 6ebd
00000030: 8f5c 4c3e bcc3 303e c098 cabd e320 593e
00000040: 0811 0ebd de23 dcbd 4d4f 2dbe a3e4 29be
00000050: 671f a9bd dcac 823d d5a9 303d c601 873d
00000060: 231f 19bd c544 f7bd 9a65 9ebd 2883 bb3d
00000070: 407c 58bb f652 053e d067 5dbe ff7a 313d

cnn_layers.4.weight f4 [64, 32, 3, 3]
0.056646124 0.037830528 0.0006932023 0.040482074 0.108985625 -0.12749277 0.065313615 -0.045543298
-0.09777985 0.13555846 0.19077346 0.10964476 0.054989215 -0.0015151154 0.13890669 0.040122632
0.069029756 -0.07047047 -0.002966899 0.008436469 -0.026119052 0.047527988 0.0513591 0.06681362
-0.066310816 0.05366546 -0.0019251353 0.010757476 0.009775376 0.0038347929 -0.08069938 0.022343371
0.073351964 -0.0047829 -0.05743416 0.019157015 0.029625418 -0.020900404 0.007576918 -0.06454956
0.0062886886 -0.013896438 -0.023795202 -0.02106004 0.019247802 -0.03114103 0.0020108372 -0.024464866
-0.043636013 0.037588246 0.046344403 -0.0059957835 -0.08790408 0.036073755 0.10007954 0.09720255
0.18804012 0.07479791 0.05427876 0.112718455 -0.01930822 -0.0023826233 0.0056605684 0.0014312282
-0.023900883 0.00995727 -0.04942701 0.026438234 -0.044719677 -0.016742807 -0.036571056 0.014543698
-0.017991764 0.008614626 -0.042797502 0.0074676797 0.0013933147 -0.020342102 0.01734604 0.031221857
0.01411877 -0.03097169 0.019063005 0.12419867 -0.047426347 0.021319306 0.18590413 -0.09001526
0.043813035 0.053621344 0.0064195255 -0.044462338 -0.003889248 0.02629133 0.045517594 0.042797927
-0.099024825 -0.07479143 0.06686782 -0.041279223 -0.03964178 -0.013618352 -0.06246106 0.0016738866
-0.0018247094 0.022420656 -0.061071176 0.060992185 -0.006947646 0.062872 0.19941513 0.12202994
0.12393717 0.20650336 -0.14518046 0.12292349 0.0918447 -0.017902505 0.08800969 0.07365729
0.18039577 0.029791757 0.22477794 -0.05094447 0.05976011 0.08050027 0.06313848 0.060074504
-0.03827014 -0.045118257 -0.04723242 -0.033371262 -0.016794875 -0.005636676 -0.0043642186 -0.023250747
-0.04718565 0.031261593 0.056501973 0.007927961 0.11535765 -0.041222956 -0.0051132794 -0.004801906
0.04063962 0.00916983 0.067745835 0.041110344 0.008855427 0.14336763 -0.11323977 0.04743463
-0.00020120651 -0.025702167 -0.043820303 -0.0005809674 0.00022528657 0.04966809 0.027923506 -0.062039226
-0.034915246 -0.030385902 -0.028665882 -0.000778868 -0.03019486 -0.03527838 -0.03688286 -0.03301159
-0.11398351 -0.059489455 -0.0028346386 0.03430784 -0.06377896 0.026698168 -0.10969133 -0.028703662
-0.05369973 -0.030714003 -0.030197691 0.07028005 -0.021734184 -0.007511629 -0.0144296745 0.06610266
0.09774373 0.02006824 -0.07512306 -0.061111793 -0.0644237 -0.0139422165 0.031206133 0.062114984
-0.008535954 0.06088208 -0.08330063 -0.013609289 -0.048492204 -0.029294608 -0.0154699925 0.027044427
-0.08285792 0.0036223512 -0.012961805 -0.043216635 -0.03074748 -0.042565353 -0.042094234 0.040356513
-0.052139074 -0.07393992 0.14211732 0.10776622 -0.023351088 0.03111052 0.0032434152 -0.11143666
-0.016993783 0.01994923 -0.03681152 0.03102252 0.037515678 0.06700897 -0.00055416615 -0.025442023
-0.0057392316 0.0184165 0.020645615 -0.033296954 -0.04949221 -0.08180154 0.006825178 0.0034561318
0.045012537 0.045776986 -0.046732534 -0.0028659003 -0.035578333 -0.031928305 -0.045042273 0.0038230317
-0.04148622 0.019536467 0.005004515 0.08716328 0.04050754 0.025196724 -0.006549433 -0.02449163
-0.046728212 0.033474836 -0.07254523 0.027559668 -0.005175493 0.10234895 0.08246281 0.035638135
00000000: c405 683d 2ff4 1a3d 05b8 353a 88d0 253d
00000010: db33 df3d 778d 02be 25c3 853d 9c8b 3abd
00000020: cd40 c8bd d6cf 0a3e 1e5a 433e 6f8d e03d
00000030: 5f3c 613d d696 c6ba 8e3d 0e3e a157 243d
00000040: 795f 8d3d d252 90bd 4e70 42bb 1e39 0a3c
00000050: 9ff7 d5bc b5ac 423d eb5d 523d 94d5 883d
00000060: f7cd 87bd 50d0 5b3d d254 fcba 2040 303c
00000070: e628 203c 2651 7b3b b745 a5bd 7209 b73c
00000080: 8e39 963d e0b9 9cbb 1540 6bbd 2cef 9c3c
00000090: 01b1 f23c 5337 abbc cc47 f83b 8f32 84bd
000000a0: 5811 ce3b e3ad 63bc 28ee c2bc 1b86 acbc
000000b0: 91ad 9d3c 791b ffbc 40c8 033b 8b6a c8bc
000000c0: adbb 32bd 22f6 193d a1d3 3d3d 4778 c4bb
000000d0: 0e07 b4bd 13c2 133d 80f6 cc3d 2112 c73d
000000e0: 978d 403e a62f 993d 6853 5e3d efd8 e63d
000000f0: 462c 9ebc c925 1cbb 4a7c b93b 0d98 bb3a
00000100: c9cb c3bc d123 233c fa73 4abd ff94 d83c
00000110: fb2b 37bd 3628 89bc 88cb 15bd b148 6e3c
00000120: 7763 93bc 5c24 0d3c 6f4c 2fbd 70b3 f43b
00000130: e29f b63a 7ba4 a6bc 4819 8e3c fbc4 ff3c
00000140: 6a52 673c 57b8 fdbc 052a 9c3c df5b fe3d
00000150: 2142 42bd d3a5 ae3c a75d 3e3e ec59 b8bd
00000160: 4c75 333d 0ea2 5b3d e25a d23b 241e 36bd
00000170: c1e2 7ebb ea60 d73c a870 3a3d e14c 2f3d
00000180: 87cd cabd 402c 99bd fff1 883d 6714 29bd
00000190: 6b5f 22bd 821f 5fbc 2bd7 7fbd 5066 db3a
000001a0: 162b efba 86ab b73c c525 7abd f1d2 793d
000001b0: 14a9 e3bb 09c3 803d 7b33 4c3e d5ea f93d
000001c0: c5d2 fd3d 9e75 533e 30aa 14be 50bf fb3d
000001d0: 1319 bc3d 46a8 92bc 6d3e b43d a2d9 963d
000001e0: abb9 383e d80d f43c 302c 663e 26ab 50bd
000001f0: 04c7 743d 53dd a43d bf4e 813d af10 763d
00000200: 26c1 1cbd eccd 38bd c876 41bd 4eb0 08bd
00000210: 6895 89bc deb3 b8bb b801 8fbb 5a78 bebc
00000220: bd45 41bd 280c 003d 9d6e 673d 47e4 013c
00000230: a240 ec3d 67d9 28bd 4c8d a7bb 4f59 9dbb
00000240: bb75 263d 0e3d 163c 54be 8a3d 5263 283d
00000250: 5a16 113c f7ce 123e 41ea e7bd d14a 423d
00000260: f6fa 52b9 5a8d d2bc eb7c 33bd 104c 18ba
00000270: e73a 6c39 c470 4b3d d6bf e43c d81c 7ebd
00000280: 4a03 0fbd dbeb f8bc b6d4 eabc f22c 4cba
00000290: 365b f7bc 1080 10bd 7b12 17bd 2937 07bd
000002a0: 3070 e9bd 37ab 73bd 58c5 39bb 6186 0c3d
000002b0: 8b9e 82bd 1eb6 da3c d9a5 e0bd f123 ebbc
000002c0: 40f4 5bbd ef9b fbbc 2661 f7bc fdee 8f3d
000002d0: e30b b2bc 1c24 f6bb 716a 6cbc d560 873d
000002e0: dd2d c83d 2666 a43c 1eda 99bd 5c50 7abd
000002f0: 93f0 83bd e56d 64bc 01a4 ff3c 486c 7e3d
00000300: 63da 0bbc 7d5f 793d 8599 aabd 7ff9 5ebc
00000310: c39f 46bd 3ffb efbc da75 7dbc 468c dd3c
00000320: 6ab1 a9bd f864 6d3b c05d 54bc ed03 31bd
00000330: 24e2 fbbc 0259 2ebd 016b 2cbd df4c 253d
00000340: c88f 55bd d06d 97bd 3487 113e 89b4 dc3d
00000350: c84a bfbc 7ddb fe3c 7a8f 543b e738 e4bd
00000360: 8c36 8bbc 916c a33c adc7 16bd f122 fe3c
00000370: 0aaa 193d 003c 893d 7645 11ba ca6b d0bc
00000380: 2a10 bcbb 33de 963c fe20 a93c 6362 08bd
00000390: 58b8 4abd 9187 a7bd bea5 df3b 4580 623b
000003a0: 115f 383d a680 3b3d 9d6a 3fbd d4d1 3bbb
000003b0: 96ba 11bd 41c7 02bd 3f7e 38bd d48b 7a3b
000003c0: 74ed 29bd f10a a03c eafc a33b a982 b23d
000003d0: 3ceb 253d 5c69 ce3c a09c d6bb aca2 c8bc
000003e0: 1566 3fbd e91c 093d 9892 94bd d0c4 e13c
000003f0: 2f97 a9bb 549c d13d 43e2 a83d 4bf9 113d

cnn_layers.4.bias f4 [64]
0.044698857 0.13669783 -0.07009057 0.08435939 -0.053646166 -0.021282919 0.008823533 -0.044288438
0.029052444 0.060671248 0.12486504 -0.063992925 -0.07240167 0.017109817 -0.032022502 -0.02537395
0.03239545 0.07415947 -0.018996665 0.12180184 -0.022434087 0.10705808 0.0803896 0.19148265
0.17037317 -0.02374631 0.097137034 -0.00083678745 0.11137583 -0.11278056 -0.051319797 -0.07872774
0.14954498 0.13558379 0.012758243 -0.084843844 0.02079185 -0.02647753 0.0074648424 -0.12319597
0.028064087 -0.097540855 -0.0045742905 0.10211351 0.3499956 -0.11329399 0.28603444 0.07415255
0.008977074 0.14987361 -0.06125783 0.05783354 0.03494351 0.03849343 -0.06193385 0.07684033
0.052780595 -0.022155218 -0.07716411 0.07980092 0.095711775 -0.12530947 -0.0984285 0.062136777
00000000: 2616 373d 84fa 0b3e a58b 8fbd 9ec4 ac3d
00000010: 15bc 5bbd 8459 aebc 9490 103c cb67 35bd
00000020: 64ff ed3c 6a82 783d 3eb9 ff3d b90e 83bd
00000030: 5447 94bd e329 8c3c 072a 03bd 08dd cfbc
00000040: 17b1 043d ece0 973d e59e 9bbc 3e73 f93d
00000050: b1c7 b7bc 4441 db3d 4da3 a43d 0714 443e
00000060: 4e76 2e3e 9f87 c2bc c8ef c63d db5b 5bba
00000070: 0319 e43d 7ff9 e6bd b534 52bd 023c a1bd
00000080: 5222 193e 7ad6 0a3e f307 513c 9cc2 adbd
00000090: ab53 aa3c 68e7 d8bc a39b f43b 2b4e fcbd
000000a0: a8e6 e53c 80c3 c7bd eee3 95bb e320 d13d
000000b0: a032 b33e ae06 e8bd 1b73 923e 4bdd 973d
000000c0: 9414 133c 7878 193e 7ee9 7abd dde2 6c3d
000000d0: ed20 0f3d 49ab 1d3d 59ae 7dbd 775e 9d3d
000000e0: 7730 583d dc7e b5bc 3808 9ebd aa6e a33d
000000f0: 8904 c43d 2051 00be e294 c9bd 2283 7e3d

cnn_layers.6.weight f4 [64, 64, 3, 3]
-0.008433393 0.061041277 -0.031073503 0.06136845 0.0013500751 0.025477678 -0.055258337 0.015222639
-0.037510656 0.015769722 0.0029826718 0.015566555 -0.07905023 -0.11824047 -0.03858572 0.045362756
0.055300385 0.02934808 0.0015768333 0.06075759 -0.009290283 0.030595148 0.09884626 0.03609897
0.0033146555 0.0072588664 -0.017802801 -0.041545548 0.009045749 -0.013496267 -0.035074793 -0.100318916
-0.02996766 -0.06527469 -0.0022641926 -0.052018564 0.018302927 0.028972274 0.028900322 0.024046663
0.04528649 -0.014390235 0.0032784785 0.0035998025 0.025821455 0.007256299 0.046911698 0.024170527
0.012142951 0.06454912 -0.030851573 -0.014098332 -0.013980893 0.049339525 -0.02815646 -0.015108582
-0.021325005 -0.018461535 0.10472249 0.033351876 -0.0025560588 0.031872295 0.024784043 -0.014556607
0.024467368 0.038109105 -0.0023891064 0.024126792 0.03175414 0.033570096 -0.001979108 0.05585671
0.054888736 -0.028129894 0.010421967 -0.017882602 -0.021082938 -0.012044163 -0.04752474 0.034230698
-0.07871761 0.0027907381 0.013834863 0.03523009 -0.0035779902 -0.015326753 -0.013480353 -0.051016904
-0.0027821923 -0.01024113 0.046153747 0.028874109 -0.013826071 0.053287566 -0.095684804 0.014847964
-0.042286366 -0.045128003 0.029906048 -0.032363523 0.002395832 -0.013425549 -0.014101969 -0.05370748
-0.025183054 -0.013545325 -0.00035320115 0.023665408 -0.022695329 0.018410856 0.008486491 0.022121102
0.042155918 0.045460176 0.012876954 0.0075324625 -0.012657887 -0.00069156603 -0.0061600553 0.01615315
0.01200691 -0.066909224 0.052443527 0.037903354 0.016086722 0.0048376755 0.007659288 -0.0012666303
-0.015722467 -0.024985367 0.035122816 0.009069167 -0.004865278 0.044456363 0.043450095 -0.041847084
0.0042257174 -0.033758417 -0.03908445 0.029050073 0.0069057057 -0.050917953 0.01916693 0.0040446036
0.01874052 -0.030791054 -0.01018032 0.032819945 -0.08941183 0.013528891 -0.036812704 -0.03231456
0.007422832 0.02345391 0.0004867586 -0.023905084 0.0044285585 -0.007852715 0.019412942 -0.008642931
-0.019122738 0.00877751 -0.01881611 0.017961321 0.045990776 0.017334318 -0.026120923 0.04008747
-0.0031810668 -0.016268343 0.05011109 0.0056285495 0.0019478366 0.0032090314 0.00787728 -0.029280772
-0.01699346 -0.06992217 -0.033686157 0.026563795 -0.04611239 -0.022824094 0.0058762147 0.006487784
0.021925813 -0.030258197 0.044206526 0.015504084 0.03505764 -0.006728576 0.0035810703 0.045874167
-0.036893055 -0.0055839075 -0.01845644 0.027607063 0.03875946 -0.0022789903 0.005209222 0.025103085
0.06278091 -0.014884052 0.03200639 -0.029041577 -0.04287973 -0.0021697911 -0.016968101 -0.009193984
-0.048327487 0.013038559 -0.025409717 -0.051440977 -0.01864007 -0.003214725 -0.059177626 -0.0031202245
0.0027700723 -0.07572344 0.028356785 -0.023761576 0.0046122544 0.037137464 -0.09287507 -0.09069166
0.011957348 0.022623833 -0.0022136865 0.05457494 -0.045250066 -0.042850938 -0.025216667 -0.030727934
0.013751079 -0.0045637283 -0.004631573 -0.02918703 0.0060155187 0.024464488 0.01468505 0.0068667633
-0.057645354 -0.007394578 0.03339713 0.047984544 0.008119215 -0.029719066 0.015404356 -0.008904521
0.02020306 0.006201216 -0.008384483 0.03661687 0.0049037505 -0.014931235 -0.038691904 -0.009478752
00000000: 372c 0abc 6b06 7a3d dc8d febc 7c5d 7b3d
00000010: 01f5 b03a 90b6 d03c 9156 62bd 6068 793c
00000020: c6a4 19bd 812f 813c ee78 433b dd0a 7f3c
00000030: 16e5 a1bd 0f28 f2bd 0f0c 1ebd 4cce 393d
00000040: a882 623d 626b f03c bfad ce3a f3dc 783d
00000050: 4536 18bc ada2 fa3c e86f ca3d 83dc 133d
00000060: b13a 593b c9db ed3b 2ed7 91bc aa2b 2abd
00000070: 9f34 143c 721f 5dbc 96aa 0fbd 0174 cdbd
00000080: bd7e f5bc bdae 85bd d962 14bb 6b11 55bd
00000090: 05f0 953c 4357 ed3c 5ec0 ec3c 82fd c43c
000000a0: 547e 393d 05c5 6bbc bedb 563b aaea 6b3b
000000b0: 8487 d33c 3fc6 ed3b 7b26 403d 4501 c63c
000000c0: 3af3 463c 5432 843d 70bc fcbc b1fc 66bc
000000d0: 1e10 65bc 3e18 4a3d 60a8 e6bc fc89 77bc
000000e0: c7b1 aebc a53c 97bc bf78 d63d fa9b 083d
000000f0: 8d83 27bb 868c 023d e807 cb3c d67e 6ebc
00000100: ca6f c83c 4b18 1c3d 8e92 1cbb 8da5 c53c
00000110: a110 023d cc80 093d ecb3 01bb 01ca 643d
00000120: 03d3 603d aa70 e6bc e6c0 2a3c 897e 92bc
00000130: 20b6 acbc e254 45bc 4da9 42bd 7d35 0c3d
00000140: b336 a1bd d1e4 363b 9fab 623c 6d4d 103d
00000150: b77c 6abb 101d 7bbc b3dc 5cbc 1af7 50bd
00000160: 7155 36bb 6aca 27bc b60b 3d3d 6589 ec3c
00000170: bf86 62bc 1044 5a3d 65f6 c3bd e044 733c
00000180: 7834 2dbd 24d8 38bd 87fd f43c 9d8f 04bd
00000190: 6403 1d3b d5f6 5bbc f20b 67bc 60fc 5bbd
000001a0: b14c cebc 36ed 5dbc db2d b9b9 f5dd c13c
000001b0: 8eeb b9bc 5dd2 963c ec0a 0b3c 5037 b53c
000001c0: afab 2c3d 7334 3a3d dcf9 523c e0d2 f63b
000001d0: 0763 4fbc 364a 35ba 4ada c9bb 9c53 843c
000001e0: a1b8 443c b407 89bd 06cf 563d 8c40 1b3d
000001f0: 4dc8 833c 5d85 9e3b c4fa fa3b 0f05 a6ba
00000200: 67cc 80bc 1dae ccbc f1dc 0f3d d896 143c
00000210: e96c 9fbb e017 363d baf8 313d d967 2bbd
00000220: e377 8a3b 4446 0abd 0417 20bd 6bfa ed3c
00000230: 4249 e23b 588f 50bd f703 9d3c 9888 843b
00000240: b885 993c 853d fcbc 5bcb 26bc 356e 063d
00000250: 8d1d b7bd 48a8 5d3c ebc8 16bd 465c 04bd
00000260: 3a3b f33b 6a22 c03c a233 ff39 98d4 c3bc
00000270: 711d 913b ada8 00bc e407 9f3c 149b 0dbc
00000280: 4aa7 9cbc 8ccf 0f3c 3e24 9abc 9f23 933c
00000290: d360 3c3d b300 8e3c 8cfb d5bc c232 243d
000002a0: 7279 50bb 3045 85bc 4941 4d3d b26f b83b
000002b0: 8d4e ff3a 9d4e 523b b50f 013c 3bde efbc
000002c0: de35 8bbc 5b33 8fbd 7ffa 09bd 519c d93c
000002d0: 58e0 3cbd 98f9 babc 438d c03b 7a97 d43b
000002e0: c39d b33c 0ae0 f7bc e711 353d d704 7e3c
000002f0: 9a98 0f3d 637b dcbb 64b0 6a3b 8de6 3b3d
00000300: 2c1d 17bd 36f9 b6bb f631 97bc 3528 e23c
00000310: 3dc2 1e3d 1d5b 15bb 1fb2 aa3b fca4 cd3c
00000320: 4793 803d 3ddc 73bc 2219 033d 9ae8 edbc
00000330: a8a2 2fbd 0e33 0ebb b000 8bbc 5da2 16bc
00000340: 0bf3 45bd ae9f 553c 0a28 d0bc c6b3 52bd
00000350: 0fb3 98bc 23ae 52bb 3d64 72bd ae7c 4cbb
00000360: 1a8a 353b e414 9bbd 7d4c e83c a3a7 c2bc
00000370: 6522 973b 741d 183d 4935 bebd 8dbc b9bd
00000380: c1e8 433c 9e55 b93c 7f13 11bb f989 5f3d
00000390: 2258 39bd 7784 2fbd 2f93 cebc 26b9 fbbc
000003a0: 354c 613c 548b 95bb 73c4 97bb a319 efbc
000003b0: d41d c53b c069 c83c 9099 703c 9602 e13b
000003c0: 891d 6cbd 374e f2bb 6ecb 083d 718b 443d
000003d0: 7506 053c 6675 f3bc 8d62 7c3c 45e4 11bc
000003e0: e380 a53c 9233 cb3b 125f 09bc 92fb 153d
000003f0: a4af a03b 24a2 74bc 677b 1ebd c44c 1bbc

cnn_layers.6.bias f4 [64]
-0.08583731 0.017566644 -0.05070219 0.05975373 0.011128717 -0.0457691 0.056018025 0.037642896
-0.0077460916 0.07356005 -0.060064342 0.02665452 0.07813815 0.09823285 -0.021063844 0.009276497
0.087227836 -0.038831227 0.07960051 -0.053268027 -0.0167665 0.08735867 -0.053042892 0.04354659
-0.06305952 0.035213374 -0.009329712 0.05711258 0.09505733 -0.03165363 -0.0005919547 -0.08083475
-0.07333751 0.0074558496 0.03555484 0.016751125 -0.09064641 -0.060262088 0.009323498 -0.02929049
-0.015550794 0.027077774 -0.0039168214 0.069540545 0.1061883 -0.07435138 0.12384519 -0.06630288
0.07614044 -0.05839092 0.051228926 -0.046633344 0.06769982 0.0061621647 -0.06370722 0.06771424
-0.029814493 -0.06374326 -0.026788207 -0.045291353 0.028952163 -0.022178285 -0.01342202 -0.06092372
00000000: 79cb afbd ece7 8f3c 19ad 4fbd 54c0 743d
00000010: 3955 363c 6178 3bbd 2873 653d 702f 1a3d
00000020: edd2 fdbb a7a6 963d 0706 76bd 945a da3c
00000030: e506 a03d 4e2e c93d 158e acbc 73fc 173c
00000040: 82a4 b23d 7e0d 1fbd 9805 a33d 932f 5abd
00000050: e659 89bc 1ae9 b23d 8143 59bd e95d 323d
00000060: 5a25 81bd e63b 103d a6db 18bc e1ee 693d
00000070: 6bad c23d 3da7 01bd 682d 1bba b08c a5bd
00000080: fa31 96bd 3350 f43b f4a1 113d a839 893c
00000090: d3a4 b9bd 61d5 76bd 96c1 183c 9cf2 efbc
000000a0: c2c8 7ebc 35d2 dd3c ae58 80bb 466b 8e3d
000000b0: 4079 d93d 8945 98bd 8ca2 fd3d cec9 87bd
000000c0: 85ef 9b3d 512b 6fbd 6cd5 513d 9b02 3fbd
000000d0: 34a6 8a3d fceb c93b ee78 82bd c3ad 8a3d
000000e0: 863d f4bc d48b 82bd f172 dbbc 6d83 39bd
000000f0: 162d ed3c 3caf b5bc 08e8 5bbc 278b 79bd

fc_energy.weight f4 [1, 256]
0.06830403 -0.021081382 0.046721548 -0.013004153 -0.009013116 0.037869748 -0.0025340628 -0.030171277
-0.0300846 0.0485695 -0.028808024 0.05576635 -0.057822946 -0.05495734 0.013572667 0.026200159
0.07779984 0.22586027 -0.00319187 0.00077545515 0.051094647 -0.03300088 0.0032726103 0.02093631
0.016133035 -0.055618368 -0.03674704 -0.002584689 0.0026764143 0.0009405927 -0.0043658144 -0.028046148
-0.038383245 0.013003815 0.030489147 0.027844977 0.014146254 -0.00014578867 -0.017312733 0.00035823905
-0.02461135 0.0013483566 0.047278073 0.008108287 0.021990206 -0.028829811 0.00022836743 -0.018771928
-0.02069237 0.04800098 -0.044673555 -0.023123907 -0.06482864 0.006060679 -0.034266464 -5.6748664e-05
0.05484339 -0.0001496105 0.17776352 0.063398845 0.0005029036 -0.019893803 -0.03915168 0.035696667
-0.03986525 0.020624366 -0.039961066 -0.03861706 0.0063764583 -0.00091786205 0.0143329585 7.530796e-05
-0.0375578 0.003759919 -0.020303331 -0.029982273 -0.036447078 0.0517648 0.027631188 -0.0094115045
0.11816181 -0.03243466 0.0015654973 0.024133353 0.0028509018 -0.0033712608 -0.043277193 -0.0018660729
0.004969999 -0.009178005 -7.0710194e-06 0.024533793 0.009411069 0.0003102858 -0.046779133 -0.0021376936
-0.04784029 0.021184921 0.043946065 0.040776998 -0.010548379 -0.0005730911 0.019804934 -0.018975241
0.086356916 -0.020881983 0.0013185301 0.025263496 -0.0004957479 -0.009328063 -0.00034944704 -0.012467658
-0.054331925 -0.00089628494 0.0031365715 -0.018842388 0.023053402 -0.00092459325 0.0069237645 0.41044533
-0.008944011 -0.03420181 0.034773927 0.013911741 0.014059315 0.034134336 0.03296774 0.00302573
0.05360755 0.019399611 0.010211595 -0.000319649 0.055755768 -0.046868 0.047202587 -0.011124294
-0.009403064 0.015567339 -0.0042192056 0.011548235 -0.03253123 0.03962794 0.033082195 -0.03445416
0.062329832 -0.0015616062 0.034614507 -0.018307673 -0.007703955 0.019696362 0.026648596 0.016574353
-0.010237556 -0.030797472 0.014431803 0.012941913 0.038140506 -0.0029034016 0.02506454 0.0005947296
0.0021892798 0.00061691646 0.0042815777 0.0033975223 -0.028348614 -0.018000083 -0.049240142 0.019588364
0.012427649 0.00072422373 -9.244294e-05 -0.0016525126 -0.051960237 -0.043266628 -0.027253503 0.00063303235
-0.005021702 0.00035373695 -0.013609126 -0.03997306 0.08762916 0.03247688 0.08501779 0.026948052
-0.073380955 -0.055526763 -0.061795413 0.00436823 0.04206452 0.003893052 -0.012151248 -0.0003084153
-0.005974452 -0.05529188 0.0018043009 0.0046617687 0.017761512 0.0060413154 0.0079283295 0.028959116
0.018566547 0.049808074 -0.04059009 -0.05081612 0.024113482 0.0055755368 0.028338915 -0.008396858
-0.009393239 -0.004392502 0.0023046792 -0.020434568 -0.029907575 -0.0003027844 0.02139236 0.0018788815
0.014231374 0.030473737 0.021982562 0.010020633 0.012464796 -0.0021324195 -0.029560974 -0.042613167
0.0066342475 -0.0028913848 0.018494254 0.009357938 0.05238665 -0.004656976 -0.027467312 0.04112738
-0.018822344 0.011979858 5.455513e-05 0.020491397 0.0066718156 0.009402191 -0.0042135296 0.0007680822
-0.0017538932 -0.041478444 0.0012321837 0.03222646 -0.0043874644 -0.0137788085 0.04051165 0.0019543106
-0.04855125 0.047093082 -0.039188575 0.021414319 -0.033201624 0.0031356825 0.00548279 0.027124655
00000000: fce2 8b3d ddb2 acbc 185f 3f3d 5f0f 55bc
00000010: c0ab 13bc 4f1d 1b3d 8512 26bb c129 f7bc
00000020: fb73 f6bc d0f0 463d cefe ebbc 426b 643d
00000030: c1d7 6cbd f31a 61bd e45f 5e3c b7a1 d63c
00000040: 8655 9f3d ea47 673e b12e 51bb ea47 4b3a
00000050: 9f48 513d ee2b 07bd 4a79 563b a082 ab3c
00000060: 6d29 843c 16d0 63bd 1084 16bd e363 29bb
00000070: c866 2f3b 1c92 763a 1b0f 8fbb 09c1 e5bc
00000080: c037 1dbd f40d 553c 60c4 f93c 261b e43c
00000090: b1c5 673c d9de 18b9 6fd3 8dbc 08d2 bb39
000000a0: be9d c9bc 57bb b03a a7a6 413d 9fd8 043c
000000b0: ce24 b43c 7f2c ecbc ea75 6f39 96c7 99bc
000000c0: 0c83 a9bc ad9c 443d 9efb 36bd 596e bdbc
000000d0: e1c4 84bd a998 c63b fe5a 0cbd 6a05 6eb8
000000e0: 76a3 603d c3e0 1cb9 a407 363e 41d7 813d
000000f0: 4ad5 033a 54f8 a2bc 835d 20bd ab36 123d
00000100: bf49 23bd 6ef4 a83c 37ae 23bd ec2c 1ebd
00000110: 9cf1 d03b ae9c 70ba c9d4 6a3c a7ee 9d38
00000120: 35d6 19bd f968 763b 2c53 a6bc 629d f5bc
00000130: 8849 15bd 5407 543d cd5a e23c b632 1abc
00000140: d2fe f13d 35da 04bd 5f31 cd3a 4fb3 c53c
00000150: 32d6 3a3b 5ff0 5cbb 6d43 31bd 0497 f4ba
00000160: 60db a23b 585f 16bc 9843 edb6 18fb c83c
00000170: e230 1a3c dbad a239 7a9b 3fbd 8c18 0cbb
00000180: 2ef4 43bd 008c ad3c ca00 343d c805 273d
00000190: 1cd3 2cbc 7e3b 16ba f53d a23c f771 9bbc
000001a0: e5db b03d b110 abbc 87d2 ac3a 64f5 ce3c
000001b0: 14f5 01ba bbd4 18bc fd35 b7b9 2645 4cbc
000001c0: 278b 5ebd aaf4 6aba f08e 4d3b 5a5b 9abc
000001d0: 7dda bc3c 6760 72ba bfe0 e23b e425 d23e
000001e0: e789 12bc 3217 0cbd 1b6f 0e3d 12ee 633c
000001f0: 0b59 663c 72d0 0b3d 2e09 073d 534b 463b
00000200: 9793 5b3d efeb 9e3c 894e 273c 9096 a7b9
00000210: 2960 643d a9f8 3fbd 8057 413d ac42 36bc
00000220: 4f0f 1abc 270e 7f3c 4341 8abb cf34 3d3c
00000230: 783f 05bd e850 223d 3281 073d ce1f 0dbd
00000240: 914d 7f3d cfae ccba f1c7 0d3d f9f9 95bc
00000250: 7571 fcbb 445a a13c 284e da3c f0c6 873c
00000260: 6cbb 27bc fb4a fcbc 5e73 6c3c 510a 543c
00000270: 3839 1c3d ff46 3ebb 2654 cd3c a1e7 1b3a
00000280: 057a 0f3b 90b8 213a 7a4c 8c3b f7a8 5e3b
00000290: 5a3b e8bc e974 93bc 08b0 49bd c777 a03c
000002a0: 579d 4b3c d5d9 3d3a eddd c1b8 1f99 d8ba
000002b0: 42d4 54bd 5938 31bd bd42 dfbc 15f2 253a
000002c0: 178d a4bb c575 b939 d0f8 5ebc cbba 23bd
000002d0: eb76 b33d 7a06 053d cf1d ae3d 29c2 dc3c
000002e0: c148 96bd 0870 63bd 301d 7dbd 5e23 8f3b
000002f0: d94b 2c3d 9322 7f3b 0716 47bc cdb2 a1b9
00000300: 56c5 c3bb bd79 62bd 4b7e ec3a c0c1 983b
00000310: 9780 913c 3af6 c53b d3e5 013c ab3b ed3c
00000320: df18 983c 8d03 4c3d cb41 26bd 9024 50bd
00000330: a389 c53c feb2 b63b 0327 e83c fa92 09bc
00000340: 1ae6 19bc faee 8fbb 1a0a 173b 6566 a7bc
00000350: bb00 f5bc 09bf 9eb9 083f af3c cd44 f63a
00000360: b52a 693c 0fa4 f93c c614 b43c 952d 243c
00000370: 2539 4c3c 10c0 0bbb db29 f2bc 258b 2ebd
00000380: 1a64 d93b 637d 3dbb 4381 973c 0952 193c
00000390: 6293 563d 8c99 98bb 2103 e1bc 2f75 283d
000003a0: 5131 9abc 2b47 443c 20d2 6438 93dd a73c
000003b0: 3f9f da3b a60b 1a3c a611 8abb 2059 493a
000003c0: e4e2 e5ba 4de5 29bd 3981 a13a e4ff 033d
000003d0: b8c4 8fbb 83c0 61bc 8bef 253d e413 003b
000003e0: addd 46bd ade4 403d 3384 20bd 156d af3c
000003f0: 6dfe 07bd 0680 4d3b faa8 b33b 8634 de3c

fc_class.weight f4 [10, 256]
0.062732235 -0.016090756 0.02174923 0.10202298 0.010798996 -0.06197169 0.09229461 0.024871398
-0.059386585 0.0383065 -0.05028475 -0.021844542 0.044710968 -0.034476828 -0.02228875 -0.13881797
-0.020354513 0.053984933 -0.113526426 -0.047693 0.037839353 -0.010518434 0.062319525 -0.005245009
0.04599212 0.069151305 0.059706178 -0.03134779 0.0064745275 0.09432974 -0.06280586 0.05306312
-0.051726375 -0.0028629145 -0.07476269 0.014119527 0.04832695 -0.019874342 -0.040670075 -0.049713332
-0.017321477 -0.022643626 -0.031610448 -0.017990524 0.067468464 -0.00053387956 -0.018755333 0.010679425
0.056168664 0.014563032 -0.09144643 -0.060236238 -0.007144181 0.04464612 -0.03427144 -0.05046782
0.029900853 -0.076747656 0.02773224 0.1297031 0.04475302 0.020161018 -0.05785378 -0.08588386
0.037767988 -0.0060847257 -0.0031933815 -0.08749266 0.06813415 0.015007419 0.032793477 -0.13660984
-0.017399693 -0.022055637 0.0034262177 0.029992186 -0.037416946 -0.07736564 -0.07446012 0.032248333
-0.048009507 -0.059244707 -0.017192906 0.073320776 0.011206147 -0.05344318 0.05995821 0.06602515
-0.030252578 0.016358452 -0.013260114 -0.025295986 -0.037335187 -0.12690043 0.006501833 -0.038863067
-0.020093868 0.028888874 -0.008870804 0.011605466 0.022767235 0.012980032 -0.02934775 0.040194735
0.014538819 -0.060958296 0.08722043 0.13806958 -0.044550285 -0.0037035767 -0.09710907 -0.06921942
0.03252788 0.026961401 0.04324893 0.049644474 0.09869993 0.027177632 -0.020043982 -0.017844507
0.0052062627 -0.049755927 -0.005568785 0.092042975 0.018681664 -0.013293127 -0.010894862 0.03504797
0.049397487 0.078421056 -0.063643575 -0.11257511 0.0009592823 -0.028897617 -0.045644235 -0.11348062
0.010262781 0.024814008 0.04989922 -0.13203183 0.057877455 0.025241226 -0.029822476 -0.0015006004
-0.03542075 -0.039479308 0.012386131 0.14315607 0.060217876 -0.053536754 -0.013607855 0.04291462
-0.06460361 -0.059094638 0.07413738 0.114923306 -0.03954118 0.034048326 -0.048859168 -0.16711508
-0.019810097 -0.083141424 -0.018668944 -0.055762503 -0.032989047 0.030224647 -0.04384631 -0.053286437
-0.063544914 -0.23106168 0.0412216 0.06423957 -0.054583233 -0.01134435 -0.004196396 -0.016444737
0.0029442855 -0.07040058 0.0007034335 0.069331296 0.01010168 0.012686093 -0.06821925 0.2476039
-0.05471927 0.032822397 0.061349966 -0.013532164 -0.0045045074 0.0290859 0.014776138 0.0056857057
0.007139156 -0.07012941 -0.012929115 -0.007119398 -0.023019064 -0.046108644 0.010209629 -0.10432398
0.06404647 0.062076695 0.02752011 -0.098747544 0.0231401 -0.04253758 -0.0086786905 -0.015034273
0.045829006 -0.0074598636 0.031617496 -0.05242797 -0.017363919 -0.047885086 -0.0755765 -0.004514312
-0.004975077 -0.07524339 -0.05609373 -0.10182116 0.03905767 -0.033556722 -0.016852666 0.049172305
0.0037203047 -0.03143845 0.056112915 0.10602187 -0.02998545 0.017803712 0.018257633 -0.0041023684
-0.06357207 0.011431242 0.039753936 0.08721418 -0.037636567 0.077903256 -0.06962181 -0.06291567
0.005132346 -0.010698361 -0.021382011 -0.051397994 0.0374337 0.0401999 0.044052813 -0.11363071
-0.060394075 0.02781724 -0.060258742 -0.11047679 0.035690565 -0.07736133 -0.059332732 0.10954209
00000000: c279 803d c3d0 83bc 712b b23c 6df1 d03d
00000010: 46ee 303c 07d6 7dbd f504 bd3d 1abf cb3c
00000020: 593f 73bd 47e7 1c3d 62f7 4dbd 53f3 b2bc
00000030: d922 373d 9337 0dbd e696 b6bc 4c26 0ebe
00000040: 82be a6bc 4e1f 5d3d 8b80 e8bd bc59 43bd
00000050: 70fd 1a3d 8355 2cbc c242 7f3d 53de abbb
00000060: 3c62 3c3d 339f 8d3d 778e 743d 8a66 00bd
00000070: 4628 d43b f32f c13d 5ca0 80bd b758 593d
00000080: 09df 53bd bc9f 3bbb 2e1d 99bd 9755 673c
00000090: 7bf2 453d 84cf a2bc aa95 26bd 35a0 4bbd
000000a0: c5e5 8dbc 207f b9bc f579 01bd dd60 93bc
000000b0: e82c 8a3d 0df4 0bba c9a4 99bc c1f8 2e3c
000000c0: 1d11 663d c999 6e3c 4448 bbbd 46ba 76bd
000000d0: bc19 eabb dade 363d 3660 0cbd 58b7 4ebd
000000e0: a2f2 f43c e02d 9dbd b92e e33c e4d0 043e
000000f0: f14e 373d b828 a53c 16f8 6cbd e1e3 afbd
00000100: 9bb2 1a3d 6162 c7bb 0d48 51bb 5a2f b3bd
00000110: eb89 8b3d ade1 753c 7452 063d 73e3 0bbe
00000120: cd89 8ebc 06ae b4bc 658a 603b 2cb2 f53c
00000130: 8342 19bd e071 9ebd 8c7e 98bd d416 043d
00000140: 9ea5 44bd 94aa 72bd 23d8 8cbc 3429 963d
00000150: fd99 373c 3ce7 5abd bd96 753d 3238 873d
00000160: 41d4 f7bc 2902 863c f340 59bc 8739 cfbc
00000170: c8ec 18bd 30f2 01be 540d d53b e12e 1fbd
00000180: e59b a4bc 5ca8 ec3c d956 11bc da24 3e3c
00000190: 5a82 ba3c 33aa 543c b16a f0bc 3ca3 243d
000001a0: 3a34 6e3c 68af 79bd a0a0 b23d 1d62 0d3e
000001b0: 5c7a 36bd b5b7 72bb 1fe1 c6bd e9c2 8dbd
000001c0: f43b 053d 28de dc3c ca25 313d 0158 4b3d
000001d0: 3023 ca3d a0a3 de3c 4733 a4bc a52e 92bc
000001e0: 4c99 aa3b dfcc 4bbd 5b7a b6bb 0781 bc3d
000001f0: 4a0a 993c 6acb 59bc 5d80 32bc 768e 0f3d
00000200: 0555 4a3d 389b a03d 9057 82bd c78d e6bd
00000210: 5878 7b3a b2ba ecbc 73f5 3abd 8768 e8bd
00000220: 3925 283c bf46 cb3c 2063 4c3d 5a33 07be
00000230: e910 6d3d b0c6 ce3c 444e f4bc cbaf c4ba
00000240: 5915 11bd 0eb5 21bd 33ef 4a3c 8197 123e
00000250: 05a7 763d 5b49 5bbd 7bf3 5ebc 3ec7 2f3d
00000260: e64e 84bd 380d 72bd 57d5 973d e95c eb3d
00000270: eff5 21bd 4276 0b3d 8d20 48bd 3720 2bbe
00000280: c948 a2bc 0d46 aabd 9def 98bc 3967 64bd
00000290: 861f 07bd ae99 f73c 3098 33bd e142 5abd
000002a0: d623 82bd 6f9b 6cbe fbd7 283d 0990 833d
000002b0: ab92 5fbd a7dd 39bc ec81 89bb 1db7 86bc
000002c0: eaf4 403b 2e2e 90bd a066 383a 91fd 8d3d
000002d0: 8481 253c 55d9 4f3c 89b6 8bbd e08b 7d3e
000002e0: 5021 60bd c770 063d 1a4a 7b3d 02b6 5dbc
000002f0: 8c9a 93bb 8e45 ee3c 9d17 723c 284f ba3b
00000300: 95ef e93b 02a0 8fbd a4d4 53bc d749 e9bb
00000310: 7a92 bcbc 6bdc 3cbd 4a46 273c d0a7 d5bd
00000320: cc2a 833d 2244 7e3d db71 e13c 273c cabd
00000330: 4f90 bd3c e33b 2ebd 1131 0ebc 5052 76bc
00000340: 32b7 3b3d df71 f4bb 5981 013d b6be 56bd
00000350: c73e 8ebc 2723 44bd dac7 9abd cbec 93bb
00000360: f905 a3bb 3519 9abd 8ac2 65bd 9d87 d0bd
00000370: effa 1f3d c672 09bd 9a0e 8abc e668 493d
00000380: 5bd0 733b 9bc5 00bd a8d6 653d ff21 d93d
00000390: 0ca4 f5bc 17d9 913c 0891 953c 296d 86bb
000003a0: 1332 82bd 1b4a 3b3c 06d5 223d 599d b23d
000003b0: cd28 1abd be8b 9f3d e195 8ebd eed9 80bd
000003c0: 3d2d a83b 2e48 2fbc 5429 afbc b486 52bd
000003d0: 1454 193d a6a8 243d b970 343d 38b7 e8bd
000003e0: c75f 77bd fbe0 e33c dfd1 76bd a841 e2bd
000003f0: 4530 123d 9e6f 9ebd e106 73bd 9a57 e03d

fc_class.bias f4 [10]
0.0355432 -0.04571837 -0.05198105 0.023646927 0.031746354 -0.03476752 0.03933848 0.02634367
0.011083581 -0.05771582
00000000: bf95 113d 2f43 3bbd 15ea 54bd 33b7 c13c
00000010: 7708 023d 6368 0ebd 6321 213d aece d73c
00000020: e897 353c 6c67 6cbd
